…
 jitter_max=0.03, jitter_sigma=0.01, k=16, layer_num=3, local_sigma=0.02, lr=0.001, lr_decay_step=20, max_dist=0.2, num_iterations=10, num_points=256, num_workers=4, optim='adam', out_path='./output', patch_rate=3, print_rate=200, save_dir='pcd', save_rate=10, seed=21, skip_rate=1, test_input_path='./data/PU-GAN/test_pointcloud/input_2048_4X/input_2048/', test_step_size=50, truncate_distance=False, up_rate=4, use_random_input=True, use_smooth_loss=False, weight_decay=0)
[2024-08-17 15:13:10,296::train::INFO] P2PNet(
  (feature_extractor): FeatureExtractor(
    (conv_init): Sequential(
      (0): Conv1d(3, 32, kernel_size=(1,), stride=(1,))
      (1): BatchNorm1d(32, eps=1e-05, momentum=0.1, affine=True, track_running_stats=True)
      (2): ReLU(inplace=True)
    )
    (dense_blocks): ModuleList(
      (0): ModuleList(
        (0): DenseUnit(
          (dense_layers): ModuleList(
            (0): DenseLayer(
              (conv_bottle): Sequential(
                (0): Conv1d(32, 32, kernel_size=(1,), stride=(1,))
                (1): BatchNorm1d(32, eps=1e-05, momentum=0.1, affine=True, track_running_stats=True)
                (2): ReLU(inplace=True)
              )
              (point_conv): Point3DConv(
                (conv_delta): Sequential(
                  (0): Conv2d(3, 32, kernel_size=(1, 1), stride=(1, 1))
                  (1): BatchNorm2d(32, eps=1e-05, momentum=0.1, affine=True, track_running_stats=True)
                  (2): ReLU(inplace=True)
                )
                (conv_feats): Sequential(
                  (0): Conv2d(32, 32, kernel_size=(1, 1), stride=(1, 1))
                  (1): BatchNorm2d(32, eps=1e-05, momentum=0.1, affine=True, track_running_stats=True)
                  (2): ReLU(inplace=True)
                )
                (post_conv): Sequential(
                  (0): Conv2d(32, 32, kernel_size=(1, 1), stride=(1, 1))
                  (1): BatchNorm2d(32, eps=1e-05, momentum=0.1, affine=True, track_running_stats=True)
                  (2): ReLU(inplace=True)
                )
              )
            )
            (1): DenseLayer(
              (conv_bottle): Sequential(
                (0): Conv1d(64, 32, kernel_size=(1,), stride=(1,))
                (1): BatchNorm1d(32, eps=1e-05, momentum=0.1, affine=True, track_running_stats=True)
                (2): ReLU(inplace=True)
              )
              (point_conv): Point3DConv(
                (conv_delta): Sequential(
                  (0): Conv2d(3, 32, kernel_size=(1, 1), stride=(1, 1))
                  (1): BatchNorm2d(32, eps=1e-05, momentum=0.1, affine=True, track_running_stats=True)
                  (2): ReLU(inplace=True)
                )
                (conv_feats): Sequential(
                  (0): Conv2d(32, 32, kernel_size=(1, 1), stride=(1, 1))
                  (1): BatchNorm2d(32, eps=1e-05, momentum=0.1, affine=True, track_running_stats=True)
                  (2): ReLU(inplace=True)
                )
                (post_conv): Sequential(
                  (0): Conv2d(32, 32, kernel_size=(1, 1), stride=(1, 1))
                  (1): BatchNorm2d(32, eps=1e-05, momentum=0.1, affine=True, track_running_stats=True)
                  (2): ReLU(inplace=True)
                )
              )
            )
            (2): DenseLayer(
              (conv_bottle): Sequential(
                (0): Conv1d(96, 32, kernel_size=(1,), stride=(1,))
                (1): BatchNorm1d(32, eps=1e-05, momentum=0.1, affine=True, track_running_stats=True)
                (2): ReLU(inplace=True)
              )
              (point_conv): Point3DConv(
                (conv_delta): Sequential(
                  (0): Conv2d(3, 32, kernel_size=(1, 1), stride=(1, 1))
                  (1): BatchNorm2d(32, eps=1e-05, momentum=0.1, affine=True, track_running_stats=True)
                  (2): ReLU(inplace=True)
                )
                (conv_feats): Sequential(
                  (0): Conv2d(32, 32, kernel_size=(1, 1), stride=(1, 1))
                  (1): BatchNorm2d(32, eps=1e-05, momentum=0.1, affine=True, track_running_stats=True)
                  (2): ReLU(inplace=True)
                )
                (post_conv): Sequential(
                  (0): Conv2d(32, 32, kernel_size=(1, 1), stride=(1, 1))
                  (1): BatchNorm2d(32, eps=1e-05, momentum=0.1, affine=True, track_running_stats=True)
                  (2): ReLU(inplace=True)
                )
              )
            )
          )
        )
        (1): Transition(
          (trans): Sequential(
            (0): Conv1d(128, 32, kernel_size=(1,), stride=(1,))
            (1): BatchNorm1d(32, eps=1e-05, momentum=0.1, affine=True, track_running_stats=True)
            (2): ReLU(inplace=True)
          )
        )
      )
      (1): ModuleList(
        (0): DenseUnit(
          (dense_layers): ModuleList(
            (0): DenseLayer(
              (conv_bottle): Sequential(
                (0): Conv1d(32, 32, kernel_size=(1,), stride=(1,))
                (1): BatchNorm1d(32, eps=1e-05, momentum=0.1, affine=True, track_running_stats=True)
                (2): ReLU(inplace=True)
              )
              (point_conv): Point3DConv(
                (conv_delta): Sequential(
                  (0): Conv2d(3, 32, kernel_size=(1, 1), stride=(1, 1))
                  (1): BatchNorm2d(32, eps=1e-05, momentum=0.1, affine=True, track_running_stats=True)
                  (2): ReLU(inplace=True)
                )
                (conv_feats): Sequential(
                  (0): Conv2d(32, 32, kernel_size=(1, 1), stride=(1, 1))
                  (1): BatchNorm2d(32, eps=1e-05, momentum=0.1, affine=True, track_running_stats=True)
                  (2): ReLU(inplace=True)
                )
                (post_conv): Sequential(
                  (0): Conv2d(32, 32, kernel_size=(1, 1), stride=(1, 1))
                  (1): BatchNorm2d(32, eps=1e-05, momentum=0.1, affine=True, track_running_stats=True)
                  (2): ReLU(inplace=True)
                )
              )
            )
            (1): DenseLayer(
              (conv_bottle): Sequential(
                (0): Conv1d(64, 32, kernel_size=(1,), stride=(1,))
                (1): BatchNorm1d(32, eps=1e-05, momentum=0.1, affine=True, track_running_stats=True)
                (2): ReLU(inplace=True)
              )
              (point_conv): Point3DConv(
                (conv_delta): Sequential(
                  (0): Conv2d(3, 32, kernel_size=(1, 1), stride=(1, 1))
                  (1): BatchNorm2d(32, eps=1e-05, momentum=0.1, affine=True, track_running_stats=True)
                  (2): ReLU(inplace=True)
                )
                (conv_feats): Sequential(
                  (0): Conv2d(32, 32, kernel_size=(1, 1), stride=(1, 1))
                  (1): BatchNorm2d(32, eps=1e-05, momentum=0.1, affine=True, track_running_stats=True)
                  (2): ReLU(inplace=True)
                )
                (post_conv): Sequential(
                  (0): Conv2d(32, 32, kernel_size=(1, 1), stride=(1, 1))
                  (1): BatchNorm2d(32, eps=1e-05, momentum=0.1, affine=True, track_running_stats=True)
                  (2): ReLU(inplace=True)
                )
              )
            )
            (2): DenseLayer(
              (conv_bottle): Sequential(
                (0): Conv1d(96, 32, kernel_size=(1,), stride=(1,))
                (1): BatchNorm1d(32, eps=1e-05, momentum=0.1, affine=True, track_running_stats=True)
                (2): ReLU(inplace=True)
              )
              (point_conv): Point3DConv(
                (conv_delta): Sequential(
                  (0): Conv2d(3, 32, kernel_size=(1, 1), stride=(1, 1))
                  (1): BatchNorm2d(32, eps=1e-05, momentum=0.1, affine=True, track_running_stats=True)
                  (2): ReLU(inplace=True)
                )
                (conv_feats): Sequential(
                  (0): Conv2d(32, 32, kernel_size=(1, 1), stride=(1, 1))
                  (1): BatchNorm2d(32, eps=1e-05, momentum=0.1, affine=True, track_running_stats=True)
                  (2): ReLU(inplace=True)
                )
                (post_conv): Sequential(
                  (0): Conv2d(32, 32, kernel_size=(1, 1), stride=(1, 1))
                  (1): BatchNorm2d(32, eps=1e-05, momentum=0.1, affine=True, track_running_stats=True)
                  (2): ReLU(inplace=True)
                )
              )
            )
          )
        )
        (1): Transition(
          (trans): Sequential(
            (0): Conv1d(128, 32, kernel_size=(1,), stride=(1,))
            (1): BatchNorm1d(32, eps=1e-05, momentum=0.1, affine=True, track_running_stats=True)
            (2): ReLU(inplace=True)
          )
        )
      )
      (2): ModuleList(
        (0): DenseUnit(
          (dense_layers): ModuleList(
            (0): DenseLayer(
              (conv_bottle): Sequential(
                (0): Conv1d(32, 32, kernel_size=(1,), stride=(1,))
                (1): BatchNorm1d(32, eps=1e-05, momentum=0.1, affine=True, track_running_stats=True)
                (2): ReLU(inplace=True)
              )
              (point_conv): Point3DConv(
                (conv_delta): Sequential(
                  (0): Conv2d(3, 32, kernel_size=(1, 1), stride=(1, 1))
                  (1): BatchNorm2d(32, eps=1e-05, momentum=0.1, affine=True, track_running_stats=True)
                  (2): ReLU(inplace=True)
                )
                (conv_feats): Sequential(
                  (0): Conv2d(32, 32, kernel_size=(1, 1), stride=(1, 1))
                  (1): BatchNorm2d(32, eps=1e-05, momentum=0.1, affine=True, track_running_stats=True)
                  (2): ReLU(inplace=True)
                )
                (post_conv): Sequential(
                  (0): Conv2d(32, 32, kernel_size=(1, 1), stride=(1, 1))
                  (1): BatchNorm2d(32, eps=1e-05, momentum=0.1, affine=True, track_running_stats=True)
                  (2): ReLU(inplace=True)
                )
              )
            )
            (1): DenseLayer(
              (conv_bottle): Sequential(
                (0): Conv1d(64, 32, kernel_size=(1,), stride=(1,))
                (1): BatchNorm1d(32, eps=1e-05, momentum=0.1, affine=True, track_running_stats=True)
                (2): ReLU(inplace=True)
              )
              (point_conv): Point3DConv(
                (conv_delta): Sequential(
                  (0): Conv2d(3, 32, kernel_size=(1, 1), stride=(1, 1))
                  (1): BatchNorm2d(32, eps=1e-05, momentum=0.1, affine=True, track_running_stats=True)
                  (2): ReLU(inplace=True)
                )
                (conv_feats): Sequential(
                  (0): Conv2d(32, 32, kernel_size=(1, 1), stride=(1, 1))
                  (1): BatchNorm2d(32, eps=1e-05, momentum=0.1, affine=True, track_running_stats=True)
                  (2): ReLU(inplace=True)
                )
                (post_conv): Sequential(
                  (0): Conv2d(32, 32, kernel_size=(1, 1), stride=(1, 1))
                  (1): BatchNorm2d(32, eps=1e-05, momentum=0.1, affine=True, track_running_stats=True)
                  (2): ReLU(inplace=True)
                )
              )
            )
            (2): DenseLayer(
              (conv_bottle): Sequential(
                (0): Conv1d(96, 32, kernel_size=(1,), stride=(1,))
                (1): BatchNorm1d(32, eps=1e-05, momentum=0.1, affine=True, track_running_stats=True)
                (2): ReLU(inplace=True)
              )
              (point_conv): Point3DConv(
                (conv_delta): Sequential(
                  (0): Conv2d(3, 32, kernel_size=(1, 1), stride=(1, 1))
                  (1): BatchNorm2d(32, eps=1e-05, momentum=0.1, affine=True, track_running_stats=True)
                  (2): ReLU(inplace=True)
                )
                (conv_feats): Sequential(
                  (0): Conv2d(32, 32, kernel_size=(1, 1), stride=(1, 1))
                  (1): BatchNorm2d(32, eps=1e-05, momentum=0.1, affine=True, track_running_stats=True)
                  (2): ReLU(inplace=True)
                )
                (post_conv): Sequential(
                  (0): Conv2d(32, 32, kernel_size=(1, 1), stride=(1, 1))
                  (1): BatchNorm2d(32, eps=1e-05, momentum=0.1, affine=True, track_running_stats=True)
                  (2): ReLU(inplace=True)
                )
              )
            )
          )
        )
        (1): Transition(
          (trans): Sequential(
            (0): Conv1d(128, 32, kernel_size=(1,), stride=(1,))
            (1): BatchNorm1d(32, eps=1e-05, momentum=0.1, affine=True, track_running_stats=True)
            (2): ReLU(inplace=True)
          )
        )
      )
    )
  )
  (p2p_regressor): P2PRegressor(
    (mlp_0): Conv1d(163, 64, kernel_size=(1,), stride=(1,))
    (mlp_1): Conv1d(64, 32, kernel_size=(1,), stride=(1,))
    (mlp_2): Conv1d(32, 16, kernel_size=(1,), stride=(1,))
    (mlp_3): Conv1d(16, 1, kernel_size=(1,), stride=(1,))
    (actvn): ReLU()
  )
)
[2024-08-17 15:13:10,298::train::INFO] ========== Begin Training ==========
[2024-08-17 15:13:10,298::train::INFO] ********* Epoch 1 *********
Loaded compiled 3D CUDA chamfer distance
[2024-08-17 15:14:16,972::train::INFO] epoch: 1/60, iters: 200/750, loss: 10.665171
[2024-08-17 15:15:25,994::train::INFO] epoch: 1/60, iters: 400/750, loss: 9.962861
…
