…
 jitter_max=0.03, jitter_sigma=0.01, k=16, layer_num=3, local_sigma=0.02, lr=0.001, lr_decay_step=20, max_dist=0.2, num_iterations=10, num_points=256, num_workers=4, optim='adam', out_path='./output', patch_rate=3, print_rate=200, save_dir='pcd', save_rate=10, seed=21, skip_rate=1, test_input_path='./data/PU-GAN/test_pointcloud/input_2048_4X/input_2048/', test_step_size=50, truncate_distance=False, up_rate=4, use_random_input=True, use_smooth_loss=False, weight_decay=0)
[2024-08-18 15:40:42,746::train::INFO] P2PNet(
  (feature_extractor): FeatureExtractor(
    (conv_init): Sequential(
      (0): Conv1d(3, 32, kernel_size=(1,), stride=(1,))
      (1): BatchNorm1d(32, eps=1e-05, momentum=0.1, affine=True, track_running_stats=True)
      (2): ReLU(inplace=True)
    )
    (dense_blocks): ModuleList(
      (0): ModuleList(
        (0): DenseUnit(
          (dense_layers): ModuleList(
            (0): DenseLayer(
              (conv_bottle): Sequential(
                (0): Conv1d(32, 32, kernel_size=(1,), stride=(1,))
                (1): BatchNorm1d(32, eps=1e-05, momentum=0.1, affine=True, track_running_stats=True)
                (2): ReLU(inplace=True)
              )
              (point_conv): Point3DConv(
                (conv_delta): Sequential(
                  (0): Conv2d(3, 32, kernel_size=(1, 1), stride=(1, 1))
                  (1): BatchNorm2d(32, eps=1e-05, momentum=0.1, affine=True, track_running_stats=True)
                  (2): ReLU(inplace=True)
                )
                (conv_feats): Sequential(
                  (0): Conv2d(32, 32, kernel_size=(1, 1), stride=(1, 1))
                  (1): BatchNorm2d(32, eps=1e-05, momentum=0.1, affine=True, track_running_stats=True)
                  (2): ReLU(inplace=True)
                )
                (post_conv): Sequential(
                  (0): Conv2d(32, 32, kernel_size=(1, 1), stride=(1, 1))
                  (1): BatchNorm2d(32, eps=1e-05, momentum=0.1, affine=True, track_running_stats=True)
                  (2): ReLU(inplace=True)
                )
              )
              (attention): SelfAttention(
                (query): Conv1d(32, 4, kernel_size=(1,), stride=(1,))
                (key): Conv1d(32, 4, kernel_size=(1,), stride=(1,))
                (value): Conv1d(32, 32, kernel_size=(1,), stride=(1,))
              )
            )
            (1): DenseLayer(
              (conv_bottle): Sequential(
                (0): Conv1d(64, 32, kernel_size=(1,), stride=(1,))
                (1): BatchNorm1d(32, eps=1e-05, momentum=0.1, affine=True, track_running_stats=True)
                (2): ReLU(inplace=True)
              )
              (point_conv): Point3DConv(
                (conv_delta): Sequential(
                  (0): Conv2d(3, 32, kernel_size=(1, 1), stride=(1, 1))
                  (1): BatchNorm2d(32, eps=1e-05, momentum=0.1, affine=True, track_running_stats=True)
                  (2): ReLU(inplace=True)
                )
                (conv_feats): Sequential(
                  (0): Conv2d(32, 32, kernel_size=(1, 1), stride=(1, 1))
                  (1): BatchNorm2d(32, eps=1e-05, momentum=0.1, affine=True, track_running_stats=True)
                  (2): ReLU(inplace=True)
                )
                (post_conv): Sequential(
                  (0): Conv2d(32, 32, kernel_size=(1, 1), stride=(1, 1))
                  (1): BatchNorm2d(32, eps=1e-05, momentum=0.1, affine=True, track_running_stats=True)
                  (2): ReLU(inplace=True)
                )
              )
              (attention): SelfAttention(
                (query): Conv1d(32, 4, kernel_size=(1,), stride=(1,))
                (key): Conv1d(32, 4, kernel_size=(1,), stride=(1,))
                (value): Conv1d(32, 32, kernel_size=(1,), stride=(1,))
              )
            )
            (2): DenseLayer(
              (conv_bottle): Sequential(
                (0): Conv1d(96, 32, kernel_size=(1,), stride=(1,))
                (1): BatchNorm1d(32, eps=1e-05, momentum=0.1, affine=True, track_running_stats=True)
                (2): ReLU(inplace=True)
              )
              (point_conv): Point3DConv(
                (conv_delta): Sequential(
                  (0): Conv2d(3, 32, kernel_size=(1, 1), stride=(1, 1))
                  (1): BatchNorm2d(32, eps=1e-05, momentum=0.1, affine=True, track_running_stats=True)
                  (2): ReLU(inplace=True)
                )
                (conv_feats): Sequential(
                  (0): Conv2d(32, 32, kernel_size=(1, 1), stride=(1, 1))
                  (1): BatchNorm2d(32, eps=1e-05, momentum=0.1, affine=True, track_running_stats=True)
                  (2): ReLU(inplace=True)
                )
                (post_conv): Sequential(
                  (0): Conv2d(32, 32, kernel_size=(1, 1), stride=(1, 1))
                  (1): BatchNorm2d(32, eps=1e-05, momentum=0.1, affine=True, track_running_stats=True)
                  (2): ReLU(inplace=True)
                )
              )
              (attention): SelfAttention(
                (query): Conv1d(32, 4, kernel_size=(1,), stride=(1,))
                (key): Conv1d(32, 4, kernel_size=(1,), stride=(1,))
                (value): Conv1d(32, 32, kernel_size=(1,), stride=(1,))
              )
            )
          )
        )
        (1): Transition(
          (trans): Sequential(
            (0): Conv1d(128, 32, kernel_size=(1,), stride=(1,))
            (1): BatchNorm1d(32, eps=1e-05, momentum=0.1, affine=True, track_running_stats=True)
            (2): ReLU(inplace=True)
          )
        )
      )
      (1): ModuleList(
        (0): DenseUnit(
          (dense_layers): ModuleList(
            (0): DenseLayer(
              (conv_bottle): Sequential(
                (0): Conv1d(32, 32, kernel_size=(1,), stride=(1,))
                (1): BatchNorm1d(32, eps=1e-05, momentum=0.1, affine=True, track_running_stats=True)
                (2): ReLU(inplace=True)
              )
              (point_conv): Point3DConv(
                (conv_delta): Sequential(
                  (0): Conv2d(3, 32, kernel_size=(1, 1), stride=(1, 1))
                  (1): BatchNorm2d(32, eps=1e-05, momentum=0.1, affine=True, track_running_stats=True)
                  (2): ReLU(inplace=True)
                )
                (conv_feats): Sequential(
                  (0): Conv2d(32, 32, kernel_size=(1, 1), stride=(1, 1))
                  (1): BatchNorm2d(32, eps=1e-05, momentum=0.1, affine=True, track_running_stats=True)
                  (2): ReLU(inplace=True)
                )
                (post_conv): Sequential(
                  (0): Conv2d(32, 32, kernel_size=(1, 1), stride=(1, 1))
                  (1): BatchNorm2d(32, eps=1e-05, momentum=0.1, affine=True, track_running_stats=True)
                  (2): ReLU(inplace=True)
                )
              )
              (attention): SelfAttention(
                (query): Conv1d(32, 4, kernel_size=(1,), stride=(1,))
                (key): Conv1d(32, 4, kernel_size=(1,), stride=(1,))
                (value): Conv1d(32, 32, kernel_size=(1,), stride=(1,))
              )
            )
            (1): DenseLayer(
              (conv_bottle): Sequential(
                (0): Conv1d(64, 32, kernel_size=(1,), stride=(1,))
                (1): BatchNorm1d(32, eps=1e-05, momentum=0.1, affine=True, track_running_stats=True)
                (2): ReLU(inplace=True)
              )
              (point_conv): Point3DConv(
                (conv_delta): Sequential(
                  (0): Conv2d(3, 32, kernel_size=(1, 1), stride=(1, 1))
                  (1): BatchNorm2d(32, eps=1e-05, momentum=0.1, affine=True, track_running_stats=True)
                  (2): ReLU(inplace=True)
                )
                (conv_feats): Sequential(
                  (0): Conv2d(32, 32, kernel_size=(1, 1), stride=(1, 1))
                  (1): BatchNorm2d(32, eps=1e-05, momentum=0.1, affine=True, track_running_stats=True)
                  (2): ReLU(inplace=True)
                )
                (post_conv): Sequential(
                  (0): Conv2d(32, 32, kernel_size=(1, 1), stride=(1, 1))
                  (1): BatchNorm2d(32, eps=1e-05, momentum=0.1, affine=True, track_running_stats=True)
                  (2): ReLU(inplace=True)
                )
              )
              (attention): SelfAttention(
                (query): Conv1d(32, 4, kernel_size=(1,), stride=(1,))
                (key): Conv1d(32, 4, kernel_size=(1,), stride=(1,))
                (value): Conv1d(32, 32, kernel_size=(1,), stride=(1,))
              )
            )
            (2): DenseLayer(
              (conv_bottle): Sequential(
                (0): Conv1d(96, 32, kernel_size=(1,), stride=(1,))
                (1): BatchNorm1d(32, eps=1e-05, momentum=0.1, affine=True, track_running_stats=True)
                (2): ReLU(inplace=True)
              )
              (point_conv): Point3DConv(
                (conv_delta): Sequential(
                  (0): Conv2d(3, 32, kernel_size=(1, 1), stride=(1, 1))
                  (1): BatchNorm2d(32, eps=1e-05, momentum=0.1, affine=True, track_running_stats=True)
                  (2): ReLU(inplace=True)
                )
                (conv_feats): Sequential(
                  (0): Conv2d(32, 32, kernel_size=(1, 1), stride=(1, 1))
                  (1): BatchNorm2d(32, eps=1e-05, momentum=0.1, affine=True, track_running_stats=True)
                  (2): ReLU(inplace=True)
                )
                (post_conv): Sequential(
                  (0): Conv2d(32, 32, kernel_size=(1, 1), stride=(1, 1))
                  (1): BatchNorm2d(32, eps=1e-05, momentum=0.1, affine=True, track_running_stats=True)
                  (2): ReLU(inplace=True)
                )
              )
              (attention): SelfAttention(
                (query): Conv1d(32, 4, kernel_size=(1,), stride=(1,))
                (key): Conv1d(32, 4, kernel_size=(1,), stride=(1,))
                (value): Conv1d(32, 32, kernel_size=(1,), stride=(1,))
              )
            )
          )
        )
        (1): Transition(
          (trans): Sequential(
            (0): Conv1d(128, 32, kernel_size=(1,), stride=(1,))
            (1): BatchNorm1d(32, eps=1e-05, momentum=0.1, affine=True, track_running_stats=True)
            (2): ReLU(inplace=True)
          )
        )
      )
      (2): ModuleList(
        (0): DenseUnit(
          (dense_layers): ModuleList(
            (0): DenseLayer(
              (conv_bottle): Sequential(
                (0): Conv1d(32, 32, kernel_size=(1,), stride=(1,))
                (1): BatchNorm1d(32, eps=1e-05, momentum=0.1, affine=True, track_running_stats=True)
                (2): ReLU(inplace=True)
              )
              (point_conv): Point3DConv(
                (conv_delta): Sequential(
                  (0): Conv2d(3, 32, kernel_size=(1, 1), stride=(1, 1))
                  (1): BatchNorm2d(32, eps=1e-05, momentum=0.1, affine=True, track_running_stats=True)
                  (2): ReLU(inplace=True)
                )
                (conv_feats): Sequential(
                  (0): Conv2d(32, 32, kernel_size=(1, 1), stride=(1, 1))
                  (1): BatchNorm2d(32, eps=1e-05, momentum=0.1, affine=True, track_running_stats=True)
                  (2): ReLU(inplace=True)
                )
                (post_conv): Sequential(
                  (0): Conv2d(32, 32, kernel_size=(1, 1), stride=(1, 1))
                  (1): BatchNorm2d(32, eps=1e-05, momentum=0.1, affine=True, track_running_stats=True)
                  (2): ReLU(inplace=True)
                )
              )
              (attention): SelfAttention(
                (query): Conv1d(32, 4, kernel_size=(1,), stride=(1,))
                (key): Conv1d(32, 4, kernel_size=(1,), stride=(1,))
                (value): Conv1d(32, 32, kernel_size=(1,), stride=(1,))
              )
            )
            (1): DenseLayer(
              (conv_bottle): Sequential(
                (0): Conv1d(64, 32, kernel_size=(1,), stride=(1,))
                (1): BatchNorm1d(32, eps=1e-05, momentum=0.1, affine=True, track_running_stats=True)
                (2): ReLU(inplace=True)
              )
              (point_conv): Point3DConv(
                (conv_delta): Sequential(
                  (0): Conv2d(3, 32, kernel_size=(1, 1), stride=(1, 1))
                  (1): BatchNorm2d(32, eps=1e-05, momentum=0.1, affine=True, track_running_stats=True)
                  (2): ReLU(inplace=True)
                )
                (conv_feats): Sequential(
                  (0): Conv2d(32, 32, kernel_size=(1, 1), stride=(1, 1))
                  (1): BatchNorm2d(32, eps=1e-05, momentum=0.1, affine=True, track_running_stats=True)
                  (2): ReLU(inplace=True)
                )
                (post_conv): Sequential(
                  (0): Conv2d(32, 32, kernel_size=(1, 1), stride=(1, 1))
                  (1): BatchNorm2d(32, eps=1e-05, momentum=0.1, affine=True, track_running_stats=True)
                  (2): ReLU(inplace=True)
                )
              )
              (attention): SelfAttention(
                (query): Conv1d(32, 4, kernel_size=(1,), stride=(1,))
                (key): Conv1d(32, 4, kernel_size=(1,), stride=(1,))
                (value): Conv1d(32, 32, kernel_size=(1,), stride=(1,))
              )
            )
            (2): DenseLayer(
              (conv_bottle): Sequential(
                (0): Conv1d(96, 32, kernel_size=(1,), stride=(1,))
                (1): BatchNorm1d(32, eps=1e-05, momentum=0.1, affine=True, track_running_stats=True)
                (2): ReLU(inplace=True)
              )
              (point_conv): Point3DConv(
                (conv_delta): Sequential(
                  (0): Conv2d(3, 32, kernel_size=(1, 1), stride=(1, 1))
                  (1): BatchNorm2d(32, eps=1e-05, momentum=0.1, affine=True, track_running_stats=True)
                  (2): ReLU(inplace=True)
                )
                (conv_feats): Sequential(
                  (0): Conv2d(32, 32, kernel_size=(1, 1), stride=(1, 1))
                  (1): BatchNorm2d(32, eps=1e-05, momentum=0.1, affine=True, track_running_stats=True)
                  (2): ReLU(inplace=True)
                )
                (post_conv): Sequential(
                  (0): Conv2d(32, 32, kernel_size=(1, 1), stride=(1, 1))
                  (1): BatchNorm2d(32, eps=1e-05, momentum=0.1, affine=True, track_running_stats=True)
                  (2): ReLU(inplace=True)
                )
              )
              (attention): SelfAttention(
                (query): Conv1d(32, 4, kernel_size=(1,), stride=(1,))
                (key): Conv1d(32, 4, kernel_size=(1,), stride=(1,))
                (value): Conv1d(32, 32, kernel_size=(1,), stride=(1,))
              )
            )
          )
        )
        (1): Transition(
          (trans): Sequential(
            (0): Conv1d(128, 32, kernel_size=(1,), stride=(1,))
            (1): BatchNorm1d(32, eps=1e-05, momentum=0.1, affine=True, track_running_stats=True)
            (2): ReLU(inplace=True)
          )
        )
      )
    )
  )
  (p2p_regressor): P2PRegressor(
    (mlp_0): FastKANConv1DLayer(
      (base_activation): SiLU()
      (base_conv): ModuleList(
        (0): Conv1d(163, 64, kernel_size=(1,), stride=(1,), bias=False)
      )
      (spline_conv): ModuleList(
        (0): Conv1d(1304, 64, kernel_size=(1,), stride=(1,), bias=False)
      )
      (layer_norm): ModuleList(
        (0): InstanceNorm1d(163, eps=1e-05, momentum=0.1, affine=False, track_running_stats=False)
      )
      (rbf): RadialBasisFunction()
    )
    (mlp_1): FastKANConv1DLayer(
      (base_activation): SiLU()
      (base_conv): ModuleList(
        (0): Conv1d(64, 32, kernel_size=(1,), stride=(1,), bias=False)
      )
      (spline_conv): ModuleList(
        (0): Conv1d(512, 32, kernel_size=(1,), stride=(1,), bias=False)
      )
      (layer_norm): ModuleList(
        (0): InstanceNorm1d(64, eps=1e-05, momentum=0.1, affine=False, track_running_stats=False)
      )
      (rbf): RadialBasisFunction()
    )
    (mlp_2): FastKANConv1DLayer(
      (base_activation): SiLU()
      (base_conv): ModuleList(
        (0): Conv1d(32, 16, kernel_size=(1,), stride=(1,), bias=False)
      )
      (spline_conv): ModuleList(
        (0): Conv1d(256, 16, kernel_size=(1,), stride=(1,), bias=False)
      )
      (layer_norm): ModuleList(
        (0): InstanceNorm1d(32, eps=1e-05, momentum=0.1, affine=False, track_running_stats=False)
      )
      (rbf): RadialBasisFunction()
    )
    (mlp_3): FastKANConv1DLayer(
      (base_activation): SiLU()
      (base_conv): ModuleList(
        (0): Conv1d(16, 1, kernel_size=(1,), stride=(1,), bias=False)
      )
      (spline_conv): ModuleList(
        (0): Conv1d(128, 1, kernel_size=(1,), stride=(1,), bias=False)
      )
      (layer_norm): ModuleList(
        (0): InstanceNorm1d(16, eps=1e-05, momentum=0.1, affine=False, track_running_stats=False)
      )
      (rbf): RadialBasisFunction()
    )
    (actvn): ReLU()
  )
)
[2024-08-18 15:40:42,748::train::INFO] ========== Begin Training ==========
[2024-08-18 15:40:42,748::train::INFO] ********* Epoch 1 *********
…
